tensorflow-lite/TFlite_model.tflite (tflite, 408288 bytes, 4 tensors)

sequential/dense/BiasAdd/ReadVariableOp f4 [128]
0	0x3e25d32d	0.16193838
1	0x3edb604a	0.428469
2	0xbce4827c	-0.027894251
3	0xbc148d40	-0.00906688
4	0x3d930991	0.07179559
5	0x3eb79c01	0.3586121
6	0x3ee3e8ef	0.44513652
7	0xbbaa6b59	-0.005200785
8	0x3e37c854	0.17947513
9	0xbe37bdef	-0.17943548
10	0x3da0489d	0.0782635
11	0xbe363f71	-0.17797638
12	0x3e27419a	0.16333619
13	0x3e20aaec	0.15690202
14	0x3e916683	0.28398523
15	0x3e2d29fd	0.16910549
16	0x3ec725d4	0.38896048
17	0xbd4e7a05	-0.050409336
18	0xbc1295b0	-0.008946821
19	0x3da60058	0.08105534
20	0xbe8d28ce	-0.27570194
21	0xbcb21463	-0.021738237
22	0x3de29349	0.11063249
23	0xbc9ba910	-0.019001514
24	0xbcedf081	-0.029045345
25	0x3e55bfb4	0.2087391
26	0xbe1b3016	-0.15155062
27	0x3ef70270	0.48244047
28	0x3d598f23	0.05311502
29	0x3eddeef9	0.43346384
30	0xbe1ef594	-0.15523368
31	0xbc5aaaa7	-0.013346351
32	0x3f2e564d	0.68100435
33	0x3eab5f2e	0.33471054
34	0x3ee365eb	0.44413695
35	0x3e8f298d	0.27961388
36	0x3d2a1a6a	0.041529097
37	0x3d8bf1d7	0.06833237
38	0x3f1665f0	0.58749294
39	0x3e6a33d6	0.22871336
40	0x3f21e523	0.6324026
41	0x3e6af41f	0.22944687
42	0x3e3bd938	0.18344581
43	0x3db28322	0.08716418
44	0x3e8ecb26	0.27889365
45	0xbe3a83f9	-0.18214406
46	0x3e8ebb0d	0.27877083
47	0x3ee87d89	0.45408276
48	0x3ea9c416	0.33157414
49	0x3c8589ef	0.016301123
50	0x3e683796	0.22677454
51	0xbeb0480e	-0.34429973
52	0xbdb8a886	-0.09016518
53	0x3ea0d9f7	0.31416294
54	0x3e3ca11d	0.18420835
55	0x3e540c05	0.2070771
56	0xbd91b8c6	-0.07115321
57	0xbd5f6773	-0.054542016
58	0x3e4ef0a4	0.20208985
59	0x3e70a997	0.23502193
60	0xbe3d5e9f	-0.18493126
61	0x3df588db	0.11988994
62	0x3eba671b	0.36406788
63	0x3f071368	0.52763987
64	0x3e6d3207	0.23163615
65	0xbcb14db8	-0.021643505
66	0xbc783fd1	-0.015151934
67	0x3eda4d2a	0.42636997
68	0xbe452e23	-0.19255881
69	0x3e26b1a1	0.16278698
70	0x3eaac59f	0.33353898
71	0x3e03a85c	0.12857193
72	0xbc367789	-0.011136898
73	0x3e0fbb8b	0.14036386
74	0x3e93b35c	0.28847778
75	0x3ebf03a6	0.3730747
76	0x3e5f684a	0.21817127
77	0x3df0d24d	0.11758862
78	0x3e90c5d5	0.28275934
79	0x3e8e56f2	0.2780071
80	0x3ccbdef1	0.02488658
81	0xbd3dee7b	-0.04637001
82	0x3ee16e2b	0.44029364
83	0x3e091d5a	0.13390103
84	0x3efec1d9	0.4975727
85	0x3e268b38	0.16264045
86	0xbcefdf9a	-0.029281426
87	0x3e2201c0	0.1582098
88	0x3edbd3f7	0.42935154
89	0x3ddb2b7b	0.107016526
90	0x3e91f537	0.28507397
91	0x3db27893	0.08714404
92	0x3ee7a936	0.45246285
93	0x3e9dfb24	0.30855668
94	0xbc8971a0	-0.016777813
95	0xbe29c865	-0.1658035
96	0x3c83e52c	0.016100489
97	0x3e47368c	0.19454402
98	0xbe1ca983	-0.15299039
99	0x3ec3561b	0.3815163
100	0xbdbaad2d	-0.09115062
101	0xbe25fb3d	-0.16209121
102	0xbc234772	-0.009965764
103	0x3ebc6229	0.3679364
104	0x3e233ba2	0.15940717
105	0x3e284ebb	0.16436283
106	0xbd0f2002	-0.034942634
107	0xbc8c1eb6	-0.017104488
108	0x3eac9305	0.33705917
109	0x3f0d195a	0.5511681
110	0x3e25c52d	0.16188498
111	0xbedfe1c5	-0.43726936
112	0xbca4cacc	-0.020116232
113	0x3eac0712	0.33599144
114	0xbcf606d5	-0.030032555
115	0x3e413479	0.18867673
116	0x3dc3f35e	0.09567903
117	0x3eb816cd	0.35954896
118	0x3df9a523	0.121897005
119	0xbe81e570	-0.2537036
120	0xbc3b8261	-0.011444659
121	0xbc2c5180	-0.010517478
122	0xbd9cff78	-0.07665914
123	0x3e402d23	0.18767218
124	0x3e847e72	0.2587772
125	0x3efb2d98	0.49058223
126	0x3da4c225	0.08044843
127	0xbc7723bf	-0.015084206

sequential/dense_1/BiasAdd/ReadVariableOp f4 [10]
0	0x38cbd194	9.718831e-05
1	0xbec05c16	-0.37570256
2	0x3e0b6ca5	0.13615663
3	0x3e93834e	0.28811115
4	0xbeaeb689	-0.34123638
5	0x3e0873b5	0.13325389
6	0x3e11f898	0.14254987
7	0x3e3437d0	0.17599416
8	0xbd80860b	-0.06275567
9	0xbed82da8	-0.42222333

sequential/dense/MatMul f4 [128, 784]
0	0x3dab3ae3	0.08360841
1	0xbde5de35	-0.11224023
2	0x3d1526a8	0.03641382
3	0x3d5c9d83	0.053861152
4	0xbca28092	-0.019836698
5	0xbc9696e7	-0.018382503
6	0xbd776c75	-0.060406167
7	0x3df547ac	0.11976561
8	0x3e4a846a	0.19777074
9	0x3ebc2746	0.36748713
10	0x3ec4429c	0.3833207
11	0x3dd55e0d	0.104183294
12	0xbcbe1164	-0.023201652
13	0xbe2492e3	-0.16071658
14	0x3d05053e	0.032475702
15	0xbe6ca934	-0.23111421
16	0x3b86b274	0.0041106287
17	0x3e30b0c9	0.17254938
18	0x3ecd4958	0.4009502
19	0x3ef7f03c	0.48425472
20	0x3ed32909	0.41242245
21	0x3e43e7ba	0.19131365
22	0x3e11517e	0.14191243
23	0xbc469809	-0.012121209
24	0x3e50f947	0.20407592
25	0x3db527b0	0.088454604
26	0x3d80f89e	0.0629742
27	0x3d9f3246	0.07773261
28	0x3e204a60	0.15653372
29	0xbde4a26e	-0.111637935
30	0x3d6a47fe	0.057197563
31	0x3dca50da	0.098787025
32	0x3c31ec8d	0.010859621
33	0xbe548392	-0.20753315
34	0xbcd5daa4	-0.026105233
35	0x3e3a0e28	0.18169463
36	0x3e15efec	0.14642304
37	0xbdc7acca	-0.09749754
38	0x3e09e53a	0.13466349
39	0x3e339bce	0.17539904
40	0x3d0faf8c	0.035079524
41	0xbdfeb37f	-0.1243658
42	0xbdad434b	-0.08460101
43	0xbdc02bf6	-0.09383385
44	0x3dd728ad	0.10505805
45	0x3e6d609e	0.23181388
46	0x3e1a30db	0.150577
47	0x3e8c2e9f	0.2737932
48	0x3e8a22d0	0.26979685
49	0x3e1e0394	0.15431052
50	0xbd2e8c4c	-0.042614266
51	0x3d9a1559	0.07523603
52	0x3e14edb3	0.145438
53	0x3c3a4aee	0.011370404
54	0x3d7c7e0a	0.061643638
55	0xbda3c0ce	-0.07995759
56	0x3df383fb	0.11890408
57	0xbdcd1f1b	-0.100156985
58	0x3dc939d7	0.09825485
59	0x3e26df7a	0.16296187
60	0xbe6c4b1a	-0.23075524
61	0xbe6750ee	-0.22589466
62	0xbdf35f68	-0.11883432
63	0xbd9d615c	-0.076845855
64	0xbdd7f29a	-0.105443195
65	0xbd268ff2	-0.04066462
66	0xbc27c4db	-0.010239805
67	0x3daf50b7	0.08560317
68	0x3da8dc5e	0.08245157
69	0xbdd5519c	-0.104159564
70	0xbe1cb0ac	-0.1530177
71	0x3d795485	0.06087162
72	0x3e066c42	0.13127235
73	0xbd04eefd	-0.03245448
74	0xbd267c72	-0.040646024
75	0xbbac9946	-0.005267295
76	0xbba44978	-0.005013641
77	0xbd4655b6	-0.048421584
78	0xbd0e53d6	-0.03474792
79	0xbc314533	-0.010819721
80	0x3d8e15b2	0.06937732
81	0x3dfa5560	0.12223315
82	0x3d1fdea8	0.0390307
83	0xbde6b831	-0.112656005
84	0x3c8518de	0.01624721
85	0x3e38f57f	0.180624
86	0x3ddb78ae	0.10716377
87	0x3cf10e9c	0.029425912
88	0xbe4e3914	-0.20138961
89	0x3c328a1c	0.010897186
90	0xbe4bd3e7	-0.19905053
91	0xbea59092	-0.3233686
92	0xbd84e0dc	-0.06488201
93	0x3c07520d	0.0082593085
94	0xbde0c262	-0.109745756
95	0x3ca8c596	0.020602029
96	0x3d5f3ef5	0.0545034
97	0xbde7c71f	-0.11317276
98	0xbd92fa33	-0.07176628
99	0xbde195f4	-0.110149294
100	0xbd2470e8	-0.04014674
101	0xbe0c882e	-0.13723823
102	0xbd35e38d	-0.044406462
103	0x3d1d926b	0.038469713
104	0xbe133344	-0.14375025
105	0xbe17905e	-0.14801165
106	0x3d0a8864	0.03382148
107	0x3bee4cf6	0.007272358
108	0xbcb99f4e	-0.02265897
109	0xbdbfa7ba	-0.09358163
110	0x3e015c89	0.12632956
111	0x3d705ae3	0.058680426
112	0x3de660ea	0.11248954
113	0x3e0baec7	0.13640891
114	0x3e8507b0	0.25982428
115	0x3d329461	0.043598536
116	0xbe56bb15	-0.20969804
117	0xbd152977	-0.036416497
118	0xbe47c0ef	-0.19507192
119	0xbe61af99	-0.22039641
120	0xbdd420b0	-0.10357797
121	0x3d8b8748	0.06812912
122	0xbd6f5cba	-0.05843804
123	0xbe0b5c66	-0.13609466
124	0xbb404db5	-0.0029343192
125	0x3c83ebff	0.016103743
126	0x3c8ddcb8	0.017317161
127	0xbde863f9	-0.11347193
128	0x3d07bfea	0.033142008
129	0xbe578634	-0.21047288
130	0x3b580e66	0.0032967567
131	0x3e2e6cd7	0.17033707
132	0xbd4b5b60	-0.04964769
133	0xbe1b4889	-0.15164389
134	0x3d51e3b2	0.051242538
135	0xbdfba52f	-0.12287366
136	0xbdb7d276	-0.08975689
137	0xbd80c409	-0.06287391
138	0x3dd533a6	0.10410242
139	0x3e0914e2	0.13386872
140	0xbd53f556	-0.051747642
141	0x3e653b88	0.2238599
142	0x3dd7dc6e	0.105400905
143	0xbcdc7897	-0.02691297
144	0x3c7925e3	0.015206787
145	0xbd572c9b	-0.052532773
146	0xbd08ac84	-0.03336765
147	0xbe0a0600	-0.13478851
148	0xbcdc24fb	-0.026873102
149	0x3d05b48a	0.03264288
150	0xbde0dcdc	-0.109796256
151	0xbe3a6907	-0.18204127
152	0xbd34e39f	-0.04416239
153	0xbbb0bdef	-0.0053937356
154	0x3d196861	0.03745306
155	0xbd9663f9	-0.07343287
156	0xbdcb111d	-0.099153735
157	0xbdd90e62	-0.105984464
158	0xbae893b9	-0.001774422
159	0x3e13e289	0.14441885
160	0xbdbe4da5	-0.09292153
161	0xbcb59901	-0.022167685
162	0x3c8aa5a0	0.01692468
163	0xbcc428bd	-0.023945207
164	0xbdb27f1f	-0.08715653
165	0xbd9b566d	-0.07584844
166	0x3e4e40e0	0.20141935
167	0x3d876224	0.06610516
168	0x3dcc4d70	0.099757075
169	0x3e918975	0.28425184
170	0x3e0db53c	0.13838667
171	0x3d9fd773	0.078047656
172	0xbdf098c3	-0.11747887
173	0x3a87ee34	0.0010370673
174	0xbd805ce3	-0.06267717
175	0x3c2184d6	0.009858331
176	0x3df0a9e4	0.11751154
177	0xbdbbe280	-0.09174061
178	0xbe2d3dd2	-0.16918114
179	0xbe1195c1	-0.14217283
180	0xbdf849aa	-0.12123425
181	0x3d465c32	0.048427768
182	0x3a4a19eb	0.00077095506
183	0xbdb4fd47	-0.08837371
184	0x3cb5170d	0.022105718
185	0xbd3b37ad	-0.045707393
186	0xbc1272a1	-0.0089384625
187	0x3dcf0e37	0.10110133
188	0xbd5947e0	-0.05304706
189	0xbdcc9f95	-0.09991375
190	0x3d1415b1	0.0361535
191	0x3cec1006	0.028816234
192	0x3e755b4d	0.2396061
193	0x3bcc251d	0.00623001
194	0x3dee630d	0.11639986
195	0x3d79554e	0.06087237
196	0x3e5b4cef	0.21416067
197	0x3e41c892	0.18924168
198	0x3e39b5dd	0.18135782
199	0x3dbed30b	0.09317597
200	0x3caeb37d	0.021325821
201	0xbcd89f43	-0.02644313
202	0xbda2edc3	-0.07955506
203	0x3d8fc9ca	0.0702091
204	0x3b0341d6	0.0020028255
205	0x3d61a2e4	0.055086985
206	0xba9577f7	-0.001140355
207	0xbcf892b7	-0.030343397
208	0xbcefda68	-0.029278949
209	0xbd1cea44	-0.03830935
210	0x3cad1630	0.021128744
211	0xbdace46b	-0.08442005
212	0xbdfa233a	-0.1221375
213	0xbda7719f	-0.081759684
214	0xbce981ca	-0.028504271
215	0x3e4aadbe	0.1979284
216	0xbd066542	-0.03281141
217	0xbce88f38	-0.028388605
218	0xbd368feb	-0.044570845
219	0x3e698226	0.22803554
220	0x3e73aa8f	0.23795532
221	0x3e282d38	0.164235
222	0xbd88c69a	-0.06678505
223	0x3cb62024	0.022232123
224	0x3e76b1f2	0.24091318
225	0x3e3bade1	0.18328048
226	0x3d9b1979	0.07573218
227	0x3d2417ea	0.04006187
228	0x3cd01c8a	0.025404233
229	0x3e006e1b	0.12542002
230	0x3d8253a5	0.0636361
231	0x3e1012a5	0.14069612
232	0x3e33e80f	0.17568992
233	0x3d19e894	0.03757532
234	0xbb837183	-0.0040113344
235	0xbdffb75c	-0.12486145
236	0xbd0d5760	-0.034507155
237	0x399f4e12	0.0003038501
238	0x3bd54f3d	0.00650969
239	0xbd633336	-0.05546876
240	0x3b0e9ccd	0.002176094
241	0x3e147729	0.14498581
242	0xbd552c06	-0.052043937
243	0x3d87c5df	0.06629538
244	0xbe4bb320	-0.1989255
245	0xbea7d685	-0.32780853
246	0xbdb0939b	-0.086219035
247	0x3e0bb57e	0.13643453
248	0x3e6ed2d0	0.23322606
249	0x3c1270d0	0.008938029
250	0xbe18d39e	-0.14924476
251	0x3c80ca19	0.015721368
252	0x3e9d37e4	0.30706704
253	0x3e92073b	0.2852114
254	0x3dd7351e	0.10508178
255	0x3e41e56e	0.18935177

sequential/dense_1/MatMul f4 [10, 128]
0	0x3db70faa	0.089385346
1	0x3e3aaab2	0.18229178
2	0xbe3149eb	-0.17313354
3	0x3df510bd	0.11966083
4	0xbd8a1620	-0.06742501
5	0x3dca30d2	0.09872593
6	0x3e7edf71	0.24889924
7	0xbecad35c	-0.3961438
8	0xbe71077e	-0.23538014
9	0xbe7443ac	-0.2385394
10	0xbdc5536b	-0.09635051
11	0xbd0357b9	-0.03206608
12	0xbdb68078	-0.08911222
13	0x3e513e0c	0.20433825
14	0xbec34834	-0.38141024
15	0x3e29998c	0.1656248
16	0x3d534bcc	0.051585957
17	0xbe461e5d	-0.1934752
18	0xba5f7c34	-0.00085252826
19	0x3e139c37	0.1441506
20	0xbd866cb5	-0.06563703
21	0xbbd242cd	-0.0064166547
22	0xbd252c4d	-0.04032545
23	0xbd6c2a83	-0.05765773
24	0x3c8cd2dc	0.01719039
25	0x3e0468fe	0.12930676
26	0xbd8672c0	-0.065648556
27	0xbe8dbb5c	-0.27682006
28	0xbc5fede4	-0.013667557
29	0xbe9d6fd0	-0.3074937
30	0xbe505b43	-0.20347314
31	0x3d8a6490	0.06757462
32	0xbf6764d7	-0.90388244
33	0x3df944e4	0.12171343
34	0x3e026fd2	0.12737969
35	0xbd2bf62a	-0.041982807
36	0xbd919999	-0.071093746
37	0xbe5de9d3	-0.21671228
38	0xbdd2fb8f	-0.10301887
39	0xbca71dc6	-0.02039994
40	0xbdec7ce9	-0.11547262
41	0xbdd5da03	-0.10441973
42	0xbd7d489e	-0.06183683
43	0xbe5cba34	-0.21555406
44	0x3c50d187	0.012745268
45	0x3c1a4dbd	0.009417948
46	0x3e0529c3	0.13004212
47	0xbe1c4ac0	-0.1526289
48	0x3d771309	0.060320888
49	0xbded6614	-0.115917355
50	0x3d6f4cd0	0.058422863
51	0xbe626ac7	-0.22111045
52	0x3d190874	0.037361577
53	0xbe4817c4	-0.19540316
54	0x3e4426f3	0.19155483
55	0xbd5f6f68	-0.054549605
56	0x3d92c35c	0.07166168
57	0x3da3f968	0.08006555
58	0x3e335da5	0.17516191
59	0xbb6441d1	-0.0034829269
60	0x3e6daf0f	0.23211311
61	0x3de7851a	0.11304684
62	0x3db8e8ea	0.090288
63	0x3d187917	0.037224855
64	0xbc9bc383	-0.019014126
65	0xbcf3ed0c	-0.029776119
66	0x3e259f39	0.1617402
67	0x3deec39f	0.116584055
68	0xbdd0955b	-0.10184737
69	0xbe0c341d	-0.13691755
70	0xbe5086cc	-0.20363921
71	0xbe3fbe17	-0.18724857
72	0xbe1ddc96	-0.15416178
73	0xbf128c24	-0.5724509
74	0x3d1699b1	0.036767665
75	0x3e52bd55	0.20580037
76	0x3d5f7705	0.054556865
77	0x3d1ae418	0.037815183
78	0x3e015349	0.12629427
79	0xba11fb1d	-0.000556873
80	0x3d875eac	0.06609854
81	0x3d8c72e5	0.06857852
82	0xbf823023	-1.017094
83	0xbde393fb	-0.111122094
84	0xbdb28855	-0.087174095
85	0x3dad1e29	0.08453018
86	0xbe49dc7a	-0.19713011
87	0xbe60bebf	-0.21947764
88	0x3e2ae2d0	0.16688085
89	0x3d8a76f3	0.06760969
90	0xbd362cd8	-0.04447636
91	0xbe95c28f	-0.2925
92	0xbeab9523	-0.3351222
93	0xbe862a47	-0.2620413
94	0x3d9e1591	0.07718957
95	0xbe852520	-0.26004887
96	0xbe8d3e4c	-0.2758659
97	0x3e0773b5	0.13227732
98	0x3da27a68	0.079335034
99	0x3c5e71e0	0.013576955
100	0x3d2f4364	0.042788878
101	0xbe779564	-0.24178082
102	0x3df0dec8	0.11761242
103	0xbf0c2c91	-0.547555
104	0x3e7b4f07	0.24541865
105	0x3db431fd	0.08798597
106	0xbdb81d98	-0.089900196
107	0x3d6a2d07	0.057171848
108	0xbe8409dd	-0.25788775
109	0x3d102add	0.035197128
110	0xbef76a59	-0.48323324
111	0xbe34523f	-0.176095
112	0xbe3b732a	-0.1830565
113	0x3e8cef73	0.27526435
114	0xbd7fc10a	-0.062439956
115	0x3de3ee94	0.111294895
116	0xbe525395	-0.20539697
117	0xbe90b967	-0.2826645
118	0xbd9e4984	-0.07728866
119	0x3df3172c	0.11869654
120	0xbe2c3116	-0.168156
121	0xbd8f7ade	-0.07005857
122	0xbe33dfa5	-0.17565782
123	0x3e468135	0.19385226
124	0x3e2aa028	0.16662657
125	0xbf439ce3	-0.76411265
126	0xbe2459c2	-0.16049865
127	0xbd0c03c0	-0.034183264
128	0x3e947024	0.28991807
129	0xbe89432d	-0.26809064
130	0x3e8a7429	0.27041748
131	0x3ee5459e	0.44779676
132	0xbc4b8ae9	-0.0124232555
133	0xbd4ecdb9	-0.05048916
134	0xbe9f1bf3	-0.3107601
135	0xbea09516	-0.31363744
136	0xbee69535	-0.4503571
137	0xbeb45aa3	-0.352254
138	0x3e606da3	0.21916823
139	0xbebbb0b3	-0.36658248
140	0x3e174906	0.1477395
141	0xbeb73164	-0.3577987
142	0x3e155bf6	0.14585862
143	0xbe1287aa	-0.14309564
144	0xbecb5f55	-0.3972117
145	0xbd13eae9	-0.0361127
146	0xbe846681	-0.25859454
147	0xbe121ac5	-0.14268024
148	0xbe113f45	-0.14184292
149	0xbd012c9c	-0.031536683
150	0x3e48b60c	0.19600695
151	0x3e20a9cc	0.15689772
152	0x3e19d00c	0.1502077
153	0x3e51d351	0.20490767
154	0xbefeeaf3	-0.49788627
155	0xbf1922af	-0.5981855
156	0xbeef1208	-0.46693444
157	0xbe094b88	-0.13407719
158	0xbe2e451d	-0.17018552
159	0xbd41e0f9	-0.04733369
160	0xbeef4772	-0.46734196
161	0x3e9162ca	0.28395683
162	0xbd2ca89d	-0.04215299
163	0xbf1d0b3d	-0.61345273
164	0x3ed0f320	0.4081049
165	0xbe469ae1	-0.19395019
166	0xbe92028c	-0.28517568
167	0xbe7a5918	-0.24448049
168	0xbf5af987	-0.85537
169	0xbefa82ba	-0.4892786
170	0xbeb90d23	-0.36142835
171	0xbeeb49bc	-0.45954692
172	0xbec30428	-0.38089108
173	0xbeb19260	-0.34681988
174	0xbe2e81e2	-0.17041734
175	0xbe881b5d	-0.26583377
176	0xbf36b7d8	-0.71374273
177	0x3d380d28	0.04493442
178	0x3e11b726	0.14230022
179	0x3d0c283a	0.03421805
180	0xbe96b88e	-0.2943768
181	0x3dc488b0	0.095963836
182	0xbc2a2527	-0.010384834
183	0x3e927bbf	0.28610036
184	0xbee58eae	-0.44835418
185	0x3e314ac9	0.17313685
186	0xbe5049c4	-0.2034064
187	0xbccc3759	-0.024928736
188	0xbcee80de	-0.029114183
189	0x3e9bd050	0.30432367
190	0xbd6965d6	-0.056981884
191	0x3d34efab	0.044173878
192	0xbcd6cff9	-0.026222216
193	0x3ea00736	0.31255502
194	0xbe4a07e0	-0.19729567
195	0x3e188186	0.1489316
196	0x3dd61bdb	0.10454532
197	0xbeae3836	-0.3402726
198	0xbe1c1ad7	-0.15244614
199	0xbf006353	-0.50151557
200	0xbd6a53a9	-0.05720869
201	0x3b1959df	0.0023399515
202	0xbf04ce13	-0.51876944
203	0xbeca6e86	-0.39537448
204	0x3de1356d	0.10996518
205	0xbd8f3d87	-0.06994157
206	0xbe380931	-0.17972256
207	0xbe4b0954	-0.19827777
208	0xbe83e2e8	-0.25759053
209	0x3eb16300	0.34645844
210	0xbf46be61	-0.77634245
211	0x3cbd3c95	0.023100177
212	0xbee33524	-0.4437648
213	0xbe991b41	-0.29903606
214	0xbe85f9a6	-0.2616703
215	0xbe5296e2	-0.2056537
216	0xbd85fbea	-0.065421894
217	0xbcd4be53	-0.02596966
218	0xbecdaca3	-0.40170774
219	0x3ddd158d	0.10795126
220	0xbccacb03	-0.024755007
221	0xbe593e08	-0.2121507
222	0x3c489d89	0.012244591
223	0x3e9e5411	0.30923513
224	0x3e51393c	0.2043199
225	0xbddcca1e	-0.10780738
226	0xbeb04d5e	-0.34434026
227	0xbda5647f	-0.08075809
228	0x3e11da4c	0.1424343
229	0xbeedcb38	-0.46444106
230	0x3d6b19c9	0.057397638
231	0xbe17e279	-0.14832486
232	0xbec7c6b4	-0.39018786
233	0xbea8c1b8	-0.32960296
234	0xbd519da4	-0.05117573
235	0x3da5117c	0.080599755
236	0x3e23beb8	0.15990722
237	0xbddf4ec6	-0.10903697
238	0xbf6f0031	-0.9335967
239	0x3edd134e	0.4317879
240	0xbdd4bad0	-0.10387194
241	0x3e9dfde2	0.3085776
242	0x3e0101d7	0.12598358
243	0xbea53bdd	-0.32272235
244	0xbe050482	-0.12990001
245	0xbda0573b	-0.07829138
246	0xbe9fb638	-0.3119371
247	0x3e09237a	0.1339244
248	0x3e0ea0a1	0.13928463
249	0xbe308c40	-0.17241001
250	0xbe38632f	-0.18006586
251	0xbd1a3c44	-0.03765513
252	0xbed7f52d	-0.42179242
253	0xbeb00ac4	-0.34383214
254	0xbeae4c63	-0.34042653
255	0xbe2692ce	-0.16266939
